…
Setting up Lunar Lander environment.
[94mCURRENT SETTINGS[0m
DUELEREND NETWERK:        [92m[ON][0m
GEDOUBLEERD NETWERK: [91m[OFF][0m
EPOCHS:         5000
REPLAY MEM.:    20000
REPLAY B. SIZE: 32
REPLAY MODULO:  5
ACTION SPACE:   4
OBSERV. SPACE:  210
Dueling  Model
__________________________________________________________________________________________________
Layer (type)                    Output Shape         Param #     Connected to                     
==================================================================================================
input_1 (InputLayer)            (None, 84, 84, 4)    0                                            
__________________________________________________________________________________________________
conv2d_1 (Conv2D)               (None, 84, 84, 32)   3232        input_1[0][0]                    
__________________________________________________________________________________________________
max_pooling2d_1 (MaxPooling2D)  (None, 42, 42, 32)   0           conv2d_1[0][0]                   
__________________________________________________________________________________________________
conv2d_2 (Conv2D)               (None, 42, 42, 32)   25632       max_pooling2d_1[0][0]            
__________________________________________________________________________________________________
max_pooling2d_2 (MaxPooling2D)  (None, 21, 21, 32)   0           conv2d_2[0][0]                   
__________________________________________________________________________________________________
conv2d_3 (Conv2D)               (None, 21, 21, 32)   25632       max_pooling2d_2[0][0]            
__________________________________________________________________________________________________
max_pooling2d_3 (MaxPooling2D)  (None, 10, 10, 32)   0           conv2d_3[0][0]                   
__________________________________________________________________________________________________
flatten_1 (Flatten)             (None, 3200)         0           max_pooling2d_3[0][0]            
__________________________________________________________________________________________________
hidden_layer_1 (Dense)          (None, 32)           102432      flatten_1[0][0]                  
__________________________________________________________________________________________________
hidden_layer_2 (Dense)          (None, 32)           1056        hidden_layer_1[0][0]             
__________________________________________________________________________________________________
action (Dense)                  (None, 4)            132         hidden_layer_2[0][0]             
__________________________________________________________________________________________________
lambda_1 (Lambda)               (None, 1)            0           action[0][0]                     
__________________________________________________________________________________________________
Value_func (Dense)              (None, 1)            33          hidden_layer_2[0][0]             
__________________________________________________________________________________________________
concat_ac_0 (Concatenate)       (None, 2)            0           lambda_1[0][0]                   
                                                                 lambda_1[0][0]                   
__________________________________________________________________________________________________
concat_0 (Concatenate)          (None, 2)            0           Value_func[0][0]                 
                                                                 Value_func[0][0]                 
__________________________________________________________________________________________________
concat_ac_1 (Concatenate)       (None, 3)            0           concat_ac_0[0][0]                
                                                                 lambda_1[0][0]                   
__________________________________________________________________________________________________
concat_1 (Concatenate)          (None, 3)            0           concat_0[0][0]                   
                                                                 Value_func[0][0]                 
__________________________________________________________________________________________________
concat_ac_2 (Concatenate)       (None, 4)            0           concat_ac_1[0][0]                
                                                                 lambda_1[0][0]                   
__________________________________________________________________________________________________
concat_2 (Concatenate)          (None, 4)            0           concat_1[0][0]                   
                                                                 Value_func[0][0]                 
__________________________________________________________________________________________________
subtract_1 (Subtract)           (None, 4)            0           action[0][0]                     
                                                                 concat_ac_2[0][0]                
__________________________________________________________________________________________________
final_layer (Add)               (None, 4)            0           concat_2[0][0]                   
                                                                 subtract_1[0][0]                 
==================================================================================================
Total params: 158,149
Trainable params: 158,149
Non-trainable params: 0
__________________________________________________________________________________________________
Dueling  Model
__________________________________________________________________________________________________
Layer (type)                    Output Shape         Param #     Connected to                     
==================================================================================================
input_2 (InputLayer)            (None, 84, 84, 4)    0                                            
__________________________________________________________________________________________________
conv2d_4 (Conv2D)               (None, 84, 84, 32)   3232        input_2[0][0]                    
__________________________________________________________________________________________________
max_pooling2d_4 (MaxPooling2D)  (None, 42, 42, 32)   0           conv2d_4[0][0]                   
__________________________________________________________________________________________________
conv2d_5 (Conv2D)               (None, 42, 42, 32)   25632       max_pooling2d_4[0][0]            
__________________________________________________________________________________________________
max_pooling2d_5 (MaxPooling2D)  (None, 21, 21, 32)   0           conv2d_5[0][0]                   
__________________________________________________________________________________________________
conv2d_6 (Conv2D)               (None, 21, 21, 32)   25632       max_pooling2d_5[0][0]            
__________________________________________________________________________________________________
max_pooling2d_6 (MaxPooling2D)  (None, 10, 10, 32)   0           conv2d_6[0][0]                   
__________________________________________________________________________________________________
flatten_2 (Flatten)             (None, 3200)         0           max_pooling2d_6[0][0]            
__________________________________________________________________________________________________
hidden_layer_1 (Dense)          (None, 32)           102432      flatten_2[0][0]                  
__________________________________________________________________________________________________
hidden_layer_2 (Dense)          (None, 32)           1056        hidden_layer_1[0][0]             
__________________________________________________________________________________________________
action (Dense)                  (None, 4)            132         hidden_layer_2[0][0]             
__________________________________________________________________________________________________
lambda_2 (Lambda)               (None, 1)            0           action[0][0]                     
__________________________________________________________________________________________________
Value_func (Dense)              (None, 1)            33          hidden_layer_2[0][0]             
__________________________________________________________________________________________________
concat_ac_0 (Concatenate)       (None, 2)            0           lambda_2[0][0]                   
                                                                 lambda_2[0][0]                   
__________________________________________________________________________________________________
concat_0 (Concatenate)          (None, 2)            0           Value_func[0][0]                 
                                                                 Value_func[0][0]                 
__________________________________________________________________________________________________
concat_ac_1 (Concatenate)       (None, 3)            0           concat_ac_0[0][0]                
                                                                 lambda_2[0][0]                   
__________________________________________________________________________________________________
concat_1 (Concatenate)          (None, 3)            0           concat_0[0][0]                   
                                                                 Value_func[0][0]                 
__________________________________________________________________________________________________
concat_ac_2 (Concatenate)       (None, 4)            0           concat_ac_1[0][0]                
                                                                 lambda_2[0][0]                   
__________________________________________________________________________________________________
concat_2 (Concatenate)          (None, 4)            0           concat_1[0][0]                   
                                                                 Value_func[0][0]                 
__________________________________________________________________________________________________
subtract_2 (Subtract)           (None, 4)            0           action[0][0]                     
                                                                 concat_ac_2[0][0]                
__________________________________________________________________________________________________
final_layer (Add)               (None, 4)            0           concat_2[0][0]                   
                                                                 subtract_2[0][0]                 
==================================================================================================
Total params: 158,149
Trainable params: 158,149
Non-trainable params: 0
__________________________________________________________________________________________________
…
